SiamBAG/pretrained/final_whisper_35_videos_channel.pth (torch_old, 3163 bytes, 8 tensors)

encoder.encoder1.0.weight f4 [8, 16]
-0.035650287 -0.2332763 0.20573775 0.2233922 0.12671691 0.09620004 -0.107502334 0.041731827
0.1519759 -0.08265625 0.13215558 0.15827101 0.23044376 0.051926617 -0.16608468 0.18452528
-0.18057488 -0.14090689 -0.10758858 0.2336586 -0.015670445 0.0958756 -0.019135404 0.13730921
0.22246628 -0.08844592 0.0013869216 0.057022225 -0.0354493 0.20907833 0.22374994 0.15755033
-0.016499462 0.20561153 -0.12918036 -0.044634603 -0.11101631 -0.12602507 -0.09143967 -0.034040153
-0.10858287 0.023158085 0.20707059 0.12088409 0.14425093 -0.12843932 0.19750439 -0.057335332
-0.14138646 -0.029167429 0.075146936 -0.16641405 0.12356771 -0.09482609 -0.10478787 0.14567982
0.11582677 0.03363042 -0.14704654 0.19305295 0.17741634 0.003892858 -0.09279433 0.029635826
0.20122102 0.19797856 0.1859762 -0.23922867 0.17076117 -0.21462014 0.14016375 0.017198205
0.1312016 0.0944505 -0.24237105 -0.0069509093 0.0483493 -0.15457898 -0.13185358 0.20531005
-0.15992345 -0.071309775 0.1960091 -0.21255967 -0.12349828 0.16582473 -0.17532873 -0.11103447
0.18937355 0.057649 -0.0013824436 0.07366296 -0.11926742 -0.16952091 -0.07650764 0.052111015
0.09696651 0.063518785 -0.13243721 -0.15286775 -0.19492319 -0.1664612 0.12442503 0.026131293
-0.1286111 0.24921258 -0.1376212 0.2537505 -0.005601139 0.09199358 -0.16120705 -0.08436466
0.014626565 0.18686217 0.08837532 -0.18844347 0.11230686 -0.021005671 0.0355634 0.23313674
0.051620375 -0.24095336 0.15045798 -0.09375829 0.0650455 0.09370865 0.22326761 0.05854646
00000000: 0906 12bd fbdf 6ebe ebac 523e edc0 643e
00000010: 14c2 013e 8704 c53d 2f2a dcbd feee 2a3d
00000020: 929f 1b3e ae47 a9bd cb53 073e cc11 223e
00000030: 73f9 6b3e 01b1 543d 1a12 2abe 32f4 3c3e
00000040: 9fe8 38be e549 10be 6757 dcbd 3344 6f3e
00000050: 4e5f 80bc 6d5a c43d dac1 9cbc c99a 0c3e
00000060: 33ce 633e 2223 b5bd 5ec9 b53a 2390 693d
00000070: 4933 11bd a118 563e b41e 653e e054 213e
00000080: e129 87bc d48b 523e db47 04be c6d2 36bd
00000090: 855c e3bd b70c 01be b944 bbbd b06d 0bbd
000000a0: b260 debd 06b6 bd3c 500a 543e 1492 f73d
000000b0: 84b6 133e 9985 03be 973e 4a3e 74d8 6abd
000000c0: 9dc7 10be 88f0 eebc a3e6 993d 7268 2abe
000000d0: 1111 fd3d 2e34 c2bd 069b d6bd 172d 153e
000000e0: 9636 ed3d 0dc0 093d 5e93 16be acaf 453e
000000f0: a1ac 353e 521f 7f3b f40a bebd d5c6 f23c
00000100: e20c 4e3e e4ba 4a3e 8c70 3e3e 5cf8 74be
00000110: 04dc 2e3e 62c5 5bbe 1687 0f3e 40e3 8c3c
00000120: b659 063e 446f c13d 1e30 78be 74c4 e3bb
00000130: ea09 463d f449 1ebe a004 07be cc3c 523e
00000140: f9c2 23be dc0a 92bd 9cb6 483e 3ea9 59be
00000150: abec fcbd f5cd 293e 6089 33be 0a66 e3bd
00000160: 24eb 413e 5c21 6c3d 1c33 b5ba 9bdc 963d
00000170: 7a42 f4bd e496 2dbe 0ab0 9cbd 5c72 553d
00000180: 6196 c63d 2316 823d 9f9d 07be 5d89 1cbe
00000190: f299 47be ce74 2abe 8dd2 fe3d 4b11 d63c
000001a0: a1b2 03be 9531 7f3e 92ec 0cbe 96eb 813e
000001b0: c289 b7bb 2167 bc3d 7613 25be 61c7 acbd
000001c0: 43a4 6f3c cc58 3f3e 1ffe b43d 53f7 40be
000001d0: 2401 e63d 1614 acbc edaa 113d 66bb 6e3e
000001e0: e36f 533d 7abc 76be a811 1a3e 5904 c0bd
000001f0: 9336 853d 52ea bf3d 44a0 643e 6ace 6f3d

encoder.encoder1.0.bias f4 [8]
-0.10243356 -0.21509595 0.1979923 0.016311178 -0.11108956 -0.17179523 -0.18468198 -0.247249
00000000: b0c8 d1bd 1d42 5cbe 7ebe 4a3e 059f 853c
00000010: ec82 e3bd 17eb 2fbe 461d 3dbe d82e 7dbe

encoder.encoder2.0.weight f4 [4, 8]
-0.017054243 0.34262282 -0.16402939 -0.14263691 -0.091649994 8.139374e-05 0.13388263 0.15582031
0.043669652 0.32657585 0.26469103 0.11498674 -0.2823965 0.13017787 0.034312893 0.11457203
-0.08154325 -0.34252992 0.007360719 -0.020110717 -0.080494165 -0.33210513 0.11032067 0.18620867
0.003589077 0.25179756 -0.1599674 0.039817654 0.19095543 -0.15687059 -0.2597694 0.07091743
00000000: 57b5 8bbc 426c af3e 52f7 27be 690f 12be
00000010: feb2 bbbd eeb1 aa38 8718 093e 5c8f 1f3e
00000020: f3de 323d f334 a73e 9585 873e 2b7e eb3d
00000030: 4696 90be 594d 053e ad8b 0c3d bea4 ea3d
00000040: 2600 a7bd 1560 afbe 3032 f13b 3bbf a4bc
00000050: 20da a4bd af09 aabe ceef e13d 7cad 3e3e
00000060: b836 6b3b 9ceb 803e 7ece 23be d617 233d
00000070: d289 433e afa2 20be 7f00 85be 283d 913d

encoder.encoder2.0.bias f4 [4]
0.25712672 0.03546494 0.32170013 0.28052187
00000000: 1da6 833e af43 113d e1b5 a43e 90a0 8f3e

decoder.decoder1.0.weight f4 [8, 4]
0.31186578 -0.35189274 0.040105637 -0.048791207 -0.013558796 -0.043882914 0.44324893 0.20924595
0.06913025 -0.16207549 0.14558081 -0.48220932 -0.2221759 -0.4224181 -0.09307539 -0.41730937
-0.4972021 -0.3137834 0.32267678 0.15597102 -0.4930219 0.34044626 -0.18815073 -0.17851248
-0.14370285 0.32382157 -0.34716183 -0.49683148 0.34360814 -0.46572003 -0.10711583 -0.43926227
00000000: dfac 9f3e 492b b4be cf45 243d 4ad9 47bd
00000010: b625 5ebc 92be 33bd 86f1 e23e 9244 563e
00000020: 2994 8d3d 1ef7 25be 2313 153e 24e4 f6be
00000030: 1482 63be 2f47 d8be 4f9e bebd 93a9 d5be
00000040: 4691 febe 38a8 a0be e435 a53e deb6 1f3e
00000050: 5e6d fcbe f94e ae3e 96aa 40be facb 36be
00000060: d726 13be f1cb a53e 32bf b1be b260 febe
00000070: 68ed af3e db72 eebe 8b5f dbbd fce6 e0be

decoder.decoder1.0.bias f4 [8]
0.21113713 -0.086028084 0.20178479 -0.14332862 0.32805872 0.14784518 -0.085510686 -0.36543903
00000000: 5534 583e 7e2f b0bd aca0 4e3e bdc4 12be
00000010: 50f7 a73e ba64 173e 3a20 afbd d31a bbbe

decoder.decoder2.0.weight f4 [16, 8]
0.1762542 -0.21713902 0.07078803 0.22914514 -0.23252478 -0.34710044 0.31129575 -0.1375415
0.14323156 0.19288316 -0.13038093 -0.22032107 0.2399416 0.19540678 0.005806858 0.32077062
-0.30077514 -0.25208047 0.11877328 0.31988677 -0.2955831 0.16071819 -0.0030959311 0.0893335
-0.10652622 -0.07078016 0.25739983 -0.25496918 -0.299676 -0.06717598 0.25988477 -0.17515796
-0.02077381 0.3464215 0.22525622 -0.060490306 0.12283546 0.3429685 -0.19473647 -0.061614595
-0.27731666 0.10046068 -0.15929385 0.2675787 0.05113232 0.242303 0.12272965 -0.1982626
0.15328075 -0.137961 0.14246948 -0.35075492 0.28835413 -0.28064993 0.103884965 0.053791035
0.107749 -0.20123564 0.11453021 0.2764007 0.34416005 0.25470048 -0.008489317 -0.29558712
-0.33754128 0.16110638 -0.094322704 -0.1335721 0.16408285 -0.15251717 -0.20605701 -0.31391555
0.28862053 -0.043729052 -0.055595096 0.35102752 0.3307803 -0.28185096 0.0016292802 -0.0108623095
-0.23283614 -0.112990394 -0.060027663 0.034234457 0.17918327 0.043084648 0.18915536 -0.35597408
-0.061053593 0.33797893 0.16045757 -0.08394346 -0.24626711 -0.19137892 -0.20621361 0.23246457
-0.07905266 0.22545364 0.112294964 -0.30159414 0.32602623 0.2656448 -0.097895704 0.268703
-0.09578933 0.22727111 0.14483632 0.0046334867 -0.17491162 -0.1640905 -0.14681357 0.03670579
0.34191713 0.34000382 -0.34375954 0.266288 0.24230182 0.24184746 0.34495363 0.13504586
0.0069253487 -0.24745455 -0.039525487 0.13013747 0.35053495 0.11075326 0.019150417 0.23933291
00000000: fb7b 343e b159 5ebe 51f9 903d 06a5 6a3e
00000010: fa1a 6ebe 26b7 b1be 2862 9f3e aed7 0cbe
00000020: 4bab 123e 2a83 453e 9482 05be d99b 61be
00000030: 40b3 753e b718 483e 7547 be3b 0c3c a43e
00000040: 33ff 99be b110 81be 683f f33d 33c8 a33e
00000050: ab56 97be 4f93 243e 1be5 4abb 7bf4 b63d
00000060: 6b2a dabd 30f5 90bd e9c9 833e 528b 82be
00000070: 226f 99be 8f93 89bd 9e0f 853e 9c5c 33be
00000080: d62d aabc 295e b13e 91a9 663e afc4 77bd
00000090: 2891 fb3d 9199 af3e ff68 47be 965f 7cbd
000000a0: 73fc 8dbe 54be cd3d ed1d 23be 1300 893e
000000b0: 2070 513d 471e 783e af59 fb3d 5a05 4bbe
000000c0: a1f5 1c3e a645 0dbe 85e3 113e 2696 b3be
000000d0: 27a3 933e 59b1 8fbe a4c1 d43d fd53 5c3d
000000e0: 82ab dc3d b710 4ebe d18e ea3d 6484 8d3e
000000f0: bf35 b03e 1a68 823e c716 0bbc 3257 97be
00000100: 36d2 acbe 12f9 243e 432c c1bd 20c7 08be
00000110: 5605 283e 762d 1cbe 9c00 53be 8ab9 a0be
00000120: 12c6 933e 3c1d 33bd afb7 63bd e1b9 b33e
00000130: 095c a93e c54e 90be 928d d53a d4f7 31bc
00000140: 996c 6ebe 8267 e7bd 91df 75bd 6e39 0c3d
00000150: d27b 373e 8779 303d f1b1 413e 3c42 b6be
00000160: 5513 7abd 930b ad3e fd4e 243e 8cea abbd
00000170: 722d 7cbe d6f8 43be a929 53be 310b 6e3e
00000180: 5ce6 a1bd 52dd 663e e7fa e53d 8c6a 9abe
00000190: e9ec a63e 9802 883e 8b7d c8bd 7193 893e
000001a0: 322d c4bd c2b9 683e f94f 143e 81d4 973b
000001b0: 081c 33be 5707 28be 4c56 16be cf58 163d
000001c0: c30f af3e fb14 ae3e 4001 b0be e756 883e
000001d0: f81d 783e dca6 773e c39d b03e 7649 0a3e
000001e0: 09ee e23b ba64 7dbe 7ae5 21bd c242 053e
000001f0: 5179 b33e 9bd2 e23d 56e1 9c3c b013 753e

decoder.decoder2.0.bias f4 [16]
-0.04921523 0.20140888 0.22436534 0.32480735 -0.13056147 0.26649463 0.30928096 -0.14547968
0.0056775245 0.26606834 -0.344597 -0.2739103 0.17077422 -0.15422891 -0.06512867 -0.2643682
00000000: e995 49bd 213e 4e3e 07c0 653e 264d a63e
00000010: e8b1 05be fc71 883e 135a 9e3e a0f8 14be
00000020: 870a ba3b 1c3a 883e 056f b0be f93d 8cbe
00000030: 70df 2e3e 2fee 1dbe 2e62 85bd 455b 87be
